…
rker creation might get DataLoader running slow or even freeze, lower the worker number to avoid potential slowness/freeze if necessary.\n","  warnings.warn(_create_warning_msg(\n","/usr/local/lib/python3.10/dist-packages/torch/functional.py:504: UserWarning: torch.meshgrid: in an upcoming release, it will be required to pass the indexing argument. (Triggered internally at ../aten/src/ATen/native/TensorShape.cpp:3483.)\n","  return _VF.meshgrid(tensors, **kwargs)  # type: ignore[attr-defined]\n","[11:25:47.915498] Model = MaskedAutoencoderViTNoCT(\n","  (patch_embed): PatchEmbed(\n","    (proj): Conv2d(3, 768, kernel_size=(16, 16), stride=(16, 16))\n","    (norm): Identity()\n","  )\n","  (blocks): ModuleList(\n","    (0-11): 12 x Block(\n","      (norm1): LayerNorm((768,), eps=1e-06, elementwise_affine=True)\n","      (attn): Attention(\n","        (qkv): Linear(in_features=768, out_features=2304, bias=True)\n","        (attn_drop): Dropout(p=0.0, inplace=False)\n","        (proj): Linear(in_features=768, out_features=768, bias=True)\n","        (proj_drop): Dropout(p=0.0, inplace=False)\n","      )\n","      (drop_path): Identity()\n","      (norm2): LayerNorm((768,), eps=1e-06, elementwise_affine=True)\n","      (mlp): Mlp(\n","        (fc1): Linear(in_features=768, out_features=3072, bias=True)\n","        (act): GELU(approximate='none')\n","        (fc2): Linear(in_features=3072, out_features=768, bias=True)\n","        (drop): Dropout(p=0.0, inplace=False)\n","      )\n","    )\n","    (12): LocalAttention(\n","      (proj_qkv): Linear(in_features=768, out_features=2304, bias=True)\n","      (proj_out): Linear(in_features=768, out_features=768, bias=True)\n","      (proj_drop): Dropout(p=0.0, inplace=True)\n","      (attn_drop): Dropout(p=0.0, inplace=True)\n","    )\n","    (13): DAttentionBaseline(\n","      (conv_offset): Sequential(\n","        (0): Conv2d(256, 256, kernel_size=(5, 5), stride=(1, 1), padding=(2, 2), groups=256)\n","        (1): LayerNormProxy(\n","          (norm): LayerNorm((256,), eps=1e-05, elementwise_affine=True)\n","        )\n","        (2): GELU(approximate='none')\n","        (3): Conv2d(256, 2, kernel_size=(1, 1), stride=(1, 1), bias=False)\n","      )\n","      (proj_q): Conv2d(768, 768, kernel_size=(1, 1), stride=(1, 1))\n","      (proj_k): Conv2d(768, 768, kernel_size=(1, 1), stride=(1, 1))\n","      (proj_v): Conv2d(768, 768, kernel_size=(1, 1), stride=(1, 1))\n","      (proj_out): Conv2d(768, 768, kernel_size=(1, 1), stride=(1, 1))\n","      (proj_drop): Dropout(p=0.0, inplace=True)\n","      (attn_drop): Dropout(p=0.0, inplace=True)\n","      (rpe_table): Conv2d(768, 768, kernel_size=(3, 3), stride=(1, 1), padding=(1, 1), groups=768)\n","    )\n","    (14): LocalAttention(\n","      (proj_qkv): Linear(in_features=768, out_features=2304, bias=True)\n","      (proj_out): Linear(in_features=768, out_features=768, bias=True)\n","      (proj_drop): Dropout(p=0.0, inplace=True)\n","      (attn_drop): Dropout(p=0.0, inplace=True)\n","    )\n","    (15): DAttentionBaseline(\n","      (conv_offset): Sequential(\n","        (0): Conv2d(256, 256, kernel_size=(5, 5), stride=(1, 1), padding=(2, 2), groups=256)\n","        (1): LayerNormProxy(\n","          (norm): LayerNorm((256,), eps=1e-05, elementwise_affine=True)\n","        )\n","        (2): GELU(approximate='none')\n","        (3): Conv2d(256, 2, kernel_size=(1, 1), stride=(1, 1), bias=False)\n","      )\n","      (proj_q): Conv2d(768, 768, kernel_size=(1, 1), stride=(1, 1))\n","      (proj_k): Conv2d(768, 768, kernel_size=(1, 1), stride=(1, 1))\n","      (proj_v): Conv2d(768, 768, kernel_size=(1, 1), stride=(1, 1))\n","      (proj_out): Conv2d(768, 768, kernel_size=(1, 1), stride=(1, 1))\n","      (proj_drop): Dropout(p=0.0, inplace=True)\n","      (attn_drop): Dropout(p=0.0, inplace=True)\n","      (rpe_table): Conv2d(768, 768, kernel_size=(3, 3), stride=(1, 1), padding=(1, 1), groups=768)\n","    )\n","    (16): LocalAttention(\n","      (proj_qkv): Linear(in_features=768, out_features=2304, bias=True)\n","      (proj_out): Linear(in_features=768, out_features=768, bias=True)\n","      (proj_drop): Dropout(p=0.0, inplace=True)\n","      (attn_drop): Dropout(p=0.0, inplace=True)\n","    )\n","    (17): DAttentionBaseline(\n","      (conv_offset): Sequential(\n","        (0): Conv2d(256, 256, kernel_size=(5, 5), stride=(1, 1), padding=(2, 2), groups=256)\n","        (1): LayerNormProxy(\n","          (norm): LayerNorm((256,), eps=1e-05, elementwise_affine=True)\n","        )\n","        (2): GELU(approximate='none')\n","        (3): Conv2d(256, 2, kernel_size=(1, 1), stride=(1, 1), bias=False)\n","      )\n","      (proj_q): Conv2d(768, 768, kernel_size=(1, 1), stride=(1, 1))\n","      (proj_k): Conv2d(768, 768, kernel_size=(1, 1), stride=(1, 1))\n","      (proj_v): Conv2d(768, 768, kernel_size=(1, 1), stride=(1, 1))\n","      (proj_out): Conv2d(768, 768, kernel_size=(1, 1), stride=(1, 1))\n","      (proj_drop): Dropout(p=0.0, inplace=True)\n","      (attn_drop): Dropout(p=0.0, inplace=True)\n","      (rpe_table): Conv2d(768, 768, kernel_size=(3, 3), stride=(1, 1), padding=(1, 1), groups=768)\n","    )\n","    (18): LocalAttention(\n","      (proj_qkv): Linear(in_features=768, out_features=2304, bias=True)\n","      (proj_out): Linear(in_features=768, out_features=768, bias=True)\n","      (proj_drop): Dropout(p=0.0, inplace=True)\n","      (attn_drop): Dropout(p=0.0, inplace=True)\n","    )\n","    (19): DAttentionBaseline(\n","      (conv_offset): Sequential(\n","        (0): Conv2d(256, 256, kernel_size=(5, 5), stride=(1, 1), padding=(2, 2), groups=256)\n","        (1): LayerNormProxy(\n","          (norm): LayerNorm((256,), eps=1e-05, elementwise_affine=True)\n","        )\n","        (2): GELU(approximate='none')\n","        (3): Conv2d(256, 2, kernel_size=(1, 1), stride=(1, 1), bias=False)\n","      )\n","      (proj_q): Conv2d(768, 768, kernel_size=(1, 1), stride=(1, 1))\n","      (proj_k): Conv2d(768, 768, kernel_size=(1, 1), stride=(1, 1))\n","      (proj_v): Conv2d(768, 768, kernel_size=(1, 1), stride=(1, 1))\n","      (proj_out): Conv2d(768, 768, kernel_size=(1, 1), stride=(1, 1))\n","      (proj_drop): Dropout(p=0.0, inplace=True)\n","      (attn_drop): Dropout(p=0.0, inplace=True)\n","      (rpe_table): Conv2d(768, 768, kernel_size=(3, 3), stride=(1, 1), padding=(1, 1), groups=768)\n","    )\n","    (20): LocalAttention(\n","      (proj_qkv): Linear(in_features=768, out_features=2304, bias=True)\n","      (proj_out): Linear(in_features=768, out_features=768, bias=True)\n","      (proj_drop): Dropout(p=0.0, inplace=True)\n","      (attn_drop): Dropout(p=0.0, inplace=True)\n","    )\n","    (21): DAttentionBaseline(\n","      (conv_offset): Sequential(\n","        (0): Conv2d(256, 256, kernel_size=(5, 5), stride=(1, 1), padding=(2, 2), groups=256)\n","        (1): LayerNormProxy(\n","          (norm): LayerNorm((256,), eps=1e-05, elementwise_affine=True)\n","        )\n","        (2): GELU(approximate='none')\n","        (3): Conv2d(256, 2, kernel_size=(1, 1), stride=(1, 1), bias=False)\n","      )\n","      (proj_q): Conv2d(768, 768, kernel_size=(1, 1), stride=(1, 1))\n","      (proj_k): Conv2d(768, 768, kernel_size=(1, 1), stride=(1, 1))\n","      (proj_v): Conv2d(768, 768, kernel_size=(1, 1), stride=(1, 1))\n","      (proj_out): Conv2d(768, 768, kernel_size=(1, 1), stride=(1, 1))\n","      (proj_drop): Dropout(p=0.0, inplace=True)\n","      (attn_drop): Dropout(p=0.0, inplace=True)\n","      (rpe_table): Conv2d(768, 768, kernel_size=(3, 3), stride=(1, 1), padding=(1, 1), groups=768)\n","    )\n","    (22): LocalAttention(\n","      (proj_qkv): Linear(in_features=768, out_features=2304, bias=True)\n","      (proj_out): Linear(in_features=768, out_features=768, bias=True)\n","      (proj_drop): Dropout(p=0.0, inplace=True)\n","      (attn_drop): Dropout(p=0.0, inplace=True)\n","    )\n","    (23): DAttentionBaseline(\n","      (conv_offset): Sequential(\n","        (0): Conv2d(256, 256, kernel_size=(5, 5), stride=(1, 1), padding=(2, 2), groups=256)\n","        (1): LayerNormProxy(\n","          (norm): LayerNorm((256,), eps=1e-05, elementwise_affine=True)\n","        )\n","        (2): GELU(approximate='none')\n","        (3): Conv2d(256, 2, kernel_size=(1, 1), stride=(1, 1), bias=False)\n","      )\n","      (proj_q): Conv2d(768, 768, kernel_size=(1, 1), stride=(1, 1))\n","      (proj_k): Conv2d(768, 768, kernel_size=(1, 1), stride=(1, 1))\n","      (proj_v): Conv2d(768, 768, kernel_size=(1, 1), stride=(1, 1))\n","      (proj_out): Conv2d(768, 768, kernel_size=(1, 1), stride=(1, 1))\n","      (proj_drop): Dropout(p=0.0, inplace=True)\n","      (attn_drop): Dropout(p=0.0, inplace=True)\n","      (rpe_table): Conv2d(768, 768, kernel_size=(3, 3), stride=(1, 1), padding=(1, 1), groups=768)\n","    )\n","    (24): LocalAttention(\n","      (proj_qkv): Linear(in_features=768, out_features=2304, bias=True)\n","      (proj_out): Linear(in_features=768, out_features=768, bias=True)\n","      (proj_drop): Dropout(p=0.0, inplace=True)\n","      (attn_drop): Dropout(p=0.0, inplace=True)\n","    )\n","    (25): DAttentionBaseline(\n","      (conv_offset): Sequential(\n","        (0): Conv2d(256, 256, kernel_size=(5, 5), stride=(1, 1), padding=(2, 2), groups=256)\n","        (1): LayerNormProxy(\n","          (norm): LayerNorm((256,), eps=1e-05, elementwise_affine=True)\n","        )\n","        (2): GELU(approximate='none')\n","        (3): Conv2d(256, 2, kernel_size=(1, 1), stride=(1, 1), bias=False)\n","      )\n","      (proj_q): Conv2d(768, 768, kernel_size=(1, 1), stride=(1, 1))\n","      (proj_k): Conv2d(768, 768, kernel_size=(1, 1), stride=(1, 1))\n","      (proj_v): Conv2d(768, 768, kernel_size=(1, 1), stride=(1, 1))\n","      (proj_out): Conv2d(768, 768, kernel_size=(1, 1), stride=(1, 1))\n","      (proj_drop): Dropout(p=0.0, inplace=True)\n","      (attn_drop): Dropout(p=0.0, inplace=True)\n","      (rpe_table): Conv2d(768, 768, kernel_size=(3, 3), stride=(1, 1), padding=(1, 1), groups=768)\n","    )\n","  )\n","  (norm): LayerNorm((768,), eps=1e-06, elementwise_affine=True)\n","  (decoder_embed): Linear(in_features=768, out_features=512, bias=True)\n","  (decoder_blocks): ModuleList(\n","    (0-7): 8 x Block(\n","      (norm1): LayerNorm((512,), eps=1e-06, elementwise_affine=True)\n","      (attn): Attention(\n","        (qkv): Linear(in_features=512, out_features=1536, bias=True)\n","        (attn_drop): Dropout(p=0.0, inplace=False)\n","        (proj): Linear(in_features=512, out_features=512, bias=True)\n","        (proj_drop): Dropout(p=0.0, inplace=False)\n","      )\n","      (drop_path): Identity()\n","      (norm2): LayerNorm((512,), eps=1e-06, elementwise_affine=True)\n","      (mlp): Mlp(\n","        (fc1): Linear(in_features=512, out_features=2048, bias=True)\n","        (act): GELU(approximate='none')\n","        (fc2): Linear(in_features=2048, out_features=512, bias=True)\n","        (drop): Dropout(p=0.0, inplace=False)\n","      )\n","    )\n","  )\n","  (decoder_norm): LayerNorm((512,), eps=1e-06, elementwise_affine=True)\n","  (decoder_pred): Linear(in_features=512, out_features=768, bias=True)\n",")\n","[11:25:47.915722] base lr: 1.00e-04\n","[11:25:47.915761] actual lr: 6.25e-06\n","[11:25:47.915778] accumulate grad iterations: 1\n","[11:25:47.915791] effective batch size: 16\n","[11:25:47.918276] AdamW (\n","Parameter Group 0\n","    amsgrad: False\n","    betas: (0.9, 0.95)\n","    capturable: False\n","    differentiable: False\n","    e
…
